notebooks/cifar_net.pth (torch, 251167 bytes, 10 tensors)

conv1.weight f4 [6, 3, 5, 5]
000000 a4 aa 95 3d 22 43 d2 3d 64 1c e5 bb b4 8a c0 bb
       0.07307938 0.10266711 -0.00699191 -0.0058759097
000010 eb 84 e8 3c 56 1d 5a be 13 b9 71 3d e8 83 a7 3e
       0.028383693 -0.21300253 0.05901439 0.32717824
000020 2c cd 90 bd d6 b2 9e bd 52 d1 89 be 26 84 93 3e
       -0.070703834 -0.07748954 -0.2691751 0.2881176
000030 10 06 f4 3e be 05 d3 bb d8 bf 42 be 07 ef b5 be
       0.47660875 -0.0064398935 -0.19018495 -0.35533926
000040 8f e8 03 be f5 ad c2 3d 50 00 8c bd fb 38 80 3e
       -0.12881683 0.09505836 -0.06835997 0.25043473
000050 c3 02 2d be 93 66 4a be 66 0a 94 bd 4e cb 33 be
       -0.16895585 -0.19765691 -0.07228546 -0.17558023
000060 79 be 6d 3e e9 89 92 be e8 d9 1e be c8 12 08 3c
       0.23217191 -0.28620842 -0.15512812 0.008305259
000070 b5 e1 ab bd 7e 89 b7 bd 8c 1e a6 be 0b be dc 3c
       -0.083926596 -0.089617714 -0.3244518 0.026946088
000080 ca 98 92 3e 91 e4 b6 bd 62 0e c3 bd 88 61 5a be
       0.28632194 -0.08930314 -0.09524228 -0.21326268
000090 94 8a 36 3e 39 d6 83 3e 13 1b fd bd 16 cd 06 be
       0.17826301 0.25749376 -0.123586796 -0.13164172
0000a0 51 4e 3f be 9e 2a 6a be 45 ca 28 3e de e7 81 bd
       -0.18682219 -0.2286782 0.1648341 -0.06343053
0000b0 45 82 91 3e 6d 6c 23 be fe 83 2c be a3 a1 21 3d
       0.284197 -0.1595933 -0.16847226 0.03946079
0000c0 a1 9f 28 be f3 4f fd 3d 45 52 d0 3b 88 87 b8 3c
       -0.16467144 0.12368765 0.0063574635 0.022525564
0000d0 cd a2 39 bd b0 29 b1 bc 36 c3 d2 3c c2 b7 21 3c
       -0.045321275 -0.021626323 0.02572785 0.009870471
0000e0 9a a0 09 3e 2e 97 2e 3e d9 61 ac bd dc 74 28 be
       0.13440171 0.17049858 -0.084171005 -0.16450828
0000f0 9e e6 96 bc 77 76 5b 3e 1f 99 b4 3e bd b9 27 be
       -0.018420514 0.2143191 0.35273072 -0.16379447
000100 aa de 71 be 5f 4b fc bd f2 a0 cc bd e0 a1 07 3e
       -0.23620096 -0.123190634 -0.099916354 0.13245344
000110 7d f7 30 bd 23 03 84 3d dd 75 87 bd f1 f3 32 be
       -0.043204773 0.06445911 -0.066142775 -0.17475869
000120 5e ec 12 be 2a 85 7d be 80 74 82 bd 36 5f d4 3d
       -0.1434798 -0.2475783 -0.06369877 0.103697225
000130 bd 9a e3 bc 33 c6 83 3d 54 03 60 3d a8 13 0a bd
       -0.027783746 0.06434288 0.054690674 -0.033710152
000140 cd 0c a7 3d 29 61 66 be 03 47 e9 3d 4d 4f 19 3e
       0.081567384 -0.22498001 0.113904975 0.14971657
000150 80 a1 69 37 52 72 11 bc bd a9 66 be 32 83 e9 ba
       1.3925484e-05 -0.008877354 -0.22525688 -0.0017815589
000160 71 3f bc 3e be 29 2c 3e 34 c7 a7 bd 46 93 59 be
       0.36767152 0.16812798 -0.08192292 -0.21247587
000170 3a 1e 25 bc fc 87 93 3e 78 b8 65 3d 9d 48 19 3d
       -0.010078007 0.28814685 0.056084126 0.037422765
000180 28 02 58 bd bf 57 44 3e a3 a7 0e 3e 69 c2 bb 3d
       -0.05273643 0.19174097 0.13931136 0.0916794
000190 ba 19 05 3c 9f 2a 54 be 98 f0 57 be 84 fc 45 3d
       0.0081238095 -0.20719384 -0.21087873 0.04833652
0001a0 5e b6 e6 3a ab 04 82 be 5e 22 ad be cb a4 67 bd
       0.0017601957 -0.25394186 -0.33815283 -0.056553643
0001b0 ee 9e 38 3e 9b ce 00 3e 99 d4 af be 0b 5e bd be
       0.18029377 0.12578814 -0.34341887 -0.36985812
0001c0 ef b5 c1 bd 8f d8 50 3e 57 f0 3f 3e 4b 35 74 be
       -0.09458529 0.2039511 0.18744026 -0.23848455
0001d0 a8 0b 90 be 2f 85 4d bd c2 78 74 3e 2a 6e ed 3d
       -0.28133893 -0.050175842 0.2387419 0.11593278
0001e0 0a 06 f5 bd 76 45 b8 bd ec 16 03 3d 62 ad a3 3d
       -0.119640425 -0.089976236 0.032004282 0.079920545
0001f0 e2 0e d1 bd c9 22 e1 bd 54 26 97 bc 11 10 a7 bd
       -0.10207917 -0.10992963 -0.018450893 -0.08157361
000200 55 c9 52 3e 88 13 5e 3d 82 c4 74 be 62 4e 29 be
       0.20584615 0.054217845 -0.23903087 -0.16533807
000210 14 76 a4 bd 0b 70 a0 3e 44 71 7f 3e ad 38 3b be
       -0.08030334 0.31335482 0.24945551 -0.18283339
000220 aa 52 a6 be a4 70 a5 bd ee 09 b0 3e c6 b0 85 3e
       -0.32484943 -0.08078125 0.34382576 0.2611143
000230 70 2f d6 bd c9 c5 94 be 7f b6 03 3d 8c c0 97 3e
       -0.10458267 -0.29057148 0.032156464 0.2963909
000240 58 f4 fd 3d 10 01 f4 3c 25 91 08 be 65 7d ed 3c
       0.124001205 0.029785663 -0.13336618 0.028990457
000250 08 a8 23 3e 06 15 bc 3d bc f2 88 3e ce 3f df 3e
       0.15982068 0.091836974 0.26747692 0.43603367
000260 1d 62 07 3f 60 86 6b 3e 22 73 a4 3a ee a6 b0 3d
       0.52884084 0.23000479 0.0012546519 0.08625589
000270 dd d6 00 3e ac 2d 8d bc 9d 01 5c bc dc 73 fa bb
       0.12581964 -0.017233692 -0.013428119 -0.007643206
000280 7f 80 c0 bd 46 24 35 be 24 ef 96 be 5f 86 a6 be
       -0.09399509 -0.17689618 -0.29479325 -0.32524392
000290 64 bf 33 bd 76 11 f8 3d c0 69 47 be d8 33 c1 be
       -0.043883696 0.121127054 -0.19473934 -0.37734866
0002a0 2e 60 0b be 67 40 1f 3d b2 c8 6b bd be 1b da bd
       -0.13610908 0.03887978 -0.057564445 -0.10649823
0002b0 92 90 14 3d f4 40 ac 3c 88 87 93 3d f5 2a 69 3e
       0.036270685 0.021027066 0.07203585 0.22770293
0002c0 ef 74 88 3e a1 01 f5 3e de 0d b4 3e e3 a6 38 3e
       0.26651713 0.47852805 0.3516683 0.18032412
0002d0 8e e4 ab 3d 6b ab e1 3d 27 a4 5a 3d e0 15 c2 3d
       0.08393203 0.110190235 0.053379204 0.094768286
0002e0 9a a0 19 bc 26 5a 5c bd 86 4d 8f be ef b8 99 be
       -0.009376669 -0.05379691 -0.27988833 -0.30023906
0002f0 b8 3a 23 be 19 bc 94 bd bf e4 f1 bd 94 3e 16 be
       -0.15940368 -0.07262439 -0.11811208 -0.14672309
000300 48 47 41 be 66 de 81 be 35 96 cf bd f7 f0 78 bd
       -0.18874848 -0.2536499 -0.101360716 -0.060776677
000310 e4 a3 05 bd 27 fd aa bd 1b 2c 97 bd 09 dd 32 3d
       -0.032627 -0.08349066 -0.07381459 0.043667827
000320 3a 74 ed bd 3b 18 3d 3e 70 41 74 3e 0f 8a c8 3d
       -0.11594434 0.18466274 0.23853087 0.097919576
000330 5f ca dd 3d 59 bf ae bc 7e 11 00 3e 59 4d f7 3d
       0.10829615 -0.021331476 0.12506673 0.120753
000340 cf c8 f6 bb ce a4 a4 3c 9c 32 f2 bd 15 3c 86 be
       -0.0075312625 0.020098116 -0.11826059 -0.26217714
000350 93 44 2f be 6f b9 0d be 90 b4 d7 bd c0 0d c1 bd
       -0.17116003 -0.13840269 -0.105324864 -0.09426451
000360 0a 1f 41 be 70 9b 13 be 9e 72 0b bd 1d 69 37 3d
       -0.18859497 -0.14414763 -0.034044854 0.04477798
000370 55 52 3d 3d f2 99 35 3e a2 8e 0c 3e 9f 68 97 3d
       0.046221096 0.17734507 0.13726285 0.07393002
000380 69 46 22 3e 7c b0 64 3e 97 4b 0b 3e 1a d7 88 3e
       0.15847172 0.22332948 0.13603054 0.2672661
000390 4e 44 9d 3e e1 0b 32 3e c0 ee 7c 3e 0d ee b6 3e
       0.30716175 0.17387344 0.24700451 0.35728493
0003a0 c6 ec b5 3e 69 14 8f 3e 00 f7 76 3e 7e f9 85 3e
       0.35532206 0.2794526 0.2411766 0.2616691
0003b0 dc b2 74 3e 51 73 90 3e 58 20 5d 3e 7b ed 68 3e
       0.23896354 0.2821298 0.2159437 0.22746842
0003c0 43 55 5c 3b 43 6e 49 3e 38 76 66 3e 8d c7 2d 3e
       0.0033620156 0.19670968 0.22506034 0.16970654
0003d0 0e 34 2e 3e 3f 5d e4 3c 86 c2 b3 bc 57 0e 10 be
       0.17012045 0.027876494 -0.021943342 -0.1406797
0003e0 fe 56 5c 3d a2 75 a3 bd 45 cd 28 be 75 30 d0 bd
       0.0537939 -0.07981421 -0.16484554 -0.101654924
0003f0 1e 28 6c be 40 5b 82 be c4 52 34 be 99 fc 7d bd
       -0.23062178 -0.25460243 -0.17609698 -0.062008474

conv1.bias f4 [6]
000000 d5 4e b1 be 13 3f 44 be 78 7b 08 bf 94 39 0f bf
       -0.34630457 -0.19164686 -0.533134 -0.5594723
000010 0a f4 2f bd 0e ab ba be
       -0.042957343 -0.3645863

conv2.weight f4 [16, 6, 5, 5]
000000 e9 22 e3 bd f6 fa af bd 67 e7 7e bd 3f 03 79 bd
       -0.11090643 -0.08592789 -0.0622324 -0.06079411
000010 37 e3 a9 bd cf 99 cf bd 3c 45 05 be cf 68 0a be
       -0.08295291 -0.101367585 -0.13014692 -0.13516544
000020 91 87 ed bd b2 9c 88 3b 55 1e 0f 3d bb 44 4d bd
       -0.11598123 0.00416907 0.034941036 -0.050114375
000030 f3 02 ab bd ff aa 38 be 1f 44 ae bd 03 da 08 bd
       -0.08350172 -0.1803398 -0.08509087 -0.033411037
000040 aa 11 89 bd 0b f0 b4 bd 6c de 98 bd 3d 19 d1 bd
       -0.06692822 -0.08834847 -0.074642986 -0.10209892
000050 81 40 53 bd 52 a1 e7 bd 36 97 b4 bd 0c 38 0c be
       -0.051575188 -0.11310066 -0.08817904 -0.13693255
000060 94 10 0c be 5c b3 ce 3d 21 2d a4 3d ec 89 a4 3d
       -0.13678199 0.10092804 0.0801642 0.08034119
000070 20 c0 f8 3c 2e b5 39 bd 59 37 d2 bd 16 5d 17 be
       0.03036505 -0.045338802 -0.10264463 -0.14781603
000080 e7 f5 60 3d 76 31 b8 3d 19 c6 db 3b 47 09 a8 3d
       0.05492201 0.08993809 0.0067069647 0.082048945
000090 93 1e 3e be b7 06 b3 bd 26 ac a7 3a 90 31 de 3d
       -0.1856635 -0.08741515 0.0012792393 0.10849297
0000a0 30 74 1e 3e 4b 43 9d 3d 67 8b 39 bd c1 63 05 3c
       0.1547401 0.07678851 -0.04529896 0.008141459
0000b0 77 62 aa 3d 1a 23 43 3e c0 03 a4 3e 4b 73 3a 3e
       0.08319562 0.19056359 0.3203411 0.18208043
0000c0 b3 e6 a2 bc 2f 65 92 bd d1 6a 1a be d1 fe 8c bd
       -0.019885397 -0.071482055 -0.1507981 -0.0688454
0000d0 94 12 61 3d db 88 ef bb 59 58 19 3d 4c 6d 03 be
       0.054949358 -0.0073100156 0.03743777 -0.12834662
0000e0 e6 31 e1 bd 3d 93 45 3c 2c dd d3 3d ae 9c 26 3d
       -0.109958455 0.01205903 0.103449196 0.040676765
0000f0 bb 19 f6 bd c0 d0 31 be 6d 0d 04 be 0c 95 a2 3c
       -0.120166264 -0.17364788 -0.12895747 0.019846462
000100 19 2c 30 3d d4 b2 aa bd 15 f1 9c bd 2d 77 23 be
       0.043010805 -0.0833489 -0.0766317 -0.1596343
000110 42 c7 82 bd 72 f7 01 3c 2f 24 1f bd 3c ca 44 3d
       -0.06385662 0.007932531 -0.038852867 0.04804443
000120 fd f4 d1 bd f8 9a e5 bd 49 4c 9f bc 7e 38 3b 3d
       -0.10251806 -0.112111986 -0.019445555 0.045708172
000130 e3 89 0a bd d0 e1 cc 3b e9 1c 24 3d c6 f8 31 bd
       -0.033822905 0.006252505 0.040066633 -0.04345014
000140 ba f1 fa bc 23 21 37 bb 53 76 0e 3d 15 2d 5e 3d
       -0.030632842 -0.0027943335 0.03478081 0.054242212
000150 70 6d 77 3d 2d 0c ba bb 29 4e 20 bd 4c 08 88 3d
       0.060407102 -0.005677721 -0.03913704 0.066422075
000160 cc c2 0b 3d a2 fa 42 3d c2 97 56 3d d6 fd 9a 3d
       0.03412132 0.047602303 0.05239082 0.075679466
000170 e5 86 cb 3d 34 49 5a bd f2 4b 9d bc a1 f4 e3 3d
       0.099378385 -0.05329247 -0.019201253 0.11130644
000180 43 3b df 3d 4c fa 2f bb ee c6 0b bd 90 fc 69 3d
       0.10899975 -0.002685207 -0.03412526 0.057125628
000190 93 6a 5c 3c 80 9a f9 3d 04 3e 5a bc fe fc 60 3d
       0.013453144 0.12187672 -0.01332045 0.054928772
0001a0 67 c7 fa 3d 7b d3 aa bd bd 18 15 3e aa 4c 39 3e
       0.12245064 -0.08341118 0.14560218 0.18095651
0001b0 c8 30 67 bd 70 e7 dd bb ff b3 a9 be 12 e3 00 3d
       -0.056443006 -0.0067719743 -0.3314514 0.03146655
0001c0 19 46 a8 3e 99 0a 64 3e c0 38 e7 bd de 30 45 be
       0.3286598 0.22269668 -0.11290121 -0.19256923
0001d0 e0 60 a1 be bd 58 37 3d fe 4f 2c 3e ec 33 0c 3e
       -0.31519222 0.04476236 0.1682739 0.13691682
0001e0 a4 9d 4b be c8 88 54 be 04 47 45 be 27 39 8a bd
       -0.19884354 -0.20755303 -0.19265372 -0.06749182
0001f0 00 9f af 3d 22 6d e2 bd 90 e1 67 bc f5 1a 1b be
       0.08575249 -0.11055972 -0.014152899 -0.15147002
000200 23 2c e0 bc f1 3d a9 bd ad f5 42 bd 13 20 9d 3b
       -0.027364796 -0.082637675 -0.047597576 0.0047950833
000210 fc 17 45 bd 7a 6b 03 be c5 5f 8d bd 18 76 0c be
       -0.048118576 -0.12833968 -0.06903032 -0.13716924
000220 6a a0 17 be c1 9e 87 3d 64 91 83 3d 48 da 3f bd
       -0.14807287 0.06622077 0.064242154 -0.04683903
000230 02 3a df bd 6d 84 2d be e0 46 0e be da 57 fc 3d
       -0.10899736 -0.16945048 -0.13894224 0.12321444
000240 12 a4 08 3e 87 07 fa bd 7c 99 17 bc 1e aa f0 bd
       0.13343838 -0.12208467 -0.009252902 -0.11751197
000250 77 8d 86 bd 68 0c ed 3d eb 3b f5 3d c4 c1 fe 3d
       -0.06569951 0.11574632 0.11974319 0.124393016
000260 b4 f7 f1 3d 3c 97 75 3c 6d ed 66 3d d6 5a 69 3d
       0.11814824 0.01498967 0.05637877 0.056971394
000270 a0 cb e1 ba 22 bb 20 3c 4b 92 fd 3b 84 18 aa bc
       -0.0017226823 0.009810241 0.0077383867 -0.020763643
000280 d6 b7 05 3d 37 f7 b8 bd 81 da c3 bd 2a 2e 4b bd
       0.032646023 -0.090315275 -0.09563161 -0.049604572
000290 8a 38 9d bd bb b6 17 3d 19 73 3b bd ab 24 f0 bd
       -0.076767996 0.0370395 -0.045764063 -0.11725744
0002a0 64 15 04 bd 98 d0 c8 39 a7 dd 68 3d 65 3c 6f 3d
       -0.032246962 0.00038302387 0.05685201 0.058407206
0002b0 d6 34 72 bd 7c e4 b1 bd 9f 04 a1 bc 36 63 39 be
       -0.05913242 -0.08686158 -0.019655524 -0.18104252
0002c0 0d e6 4a be c7 85 4d be 8c ee d1 bd fc 9b 2f be
       -0.1981432 -0.20070563 -0.10250577 -0.17149347
0002d0 68 6d f1 bd 49 52 13 be 38 2d 1d be 6d 8d 24 be
       -0.11788446 -0.14386858 -0.15349281 -0.16069575
0002e0 fa bb c9 bd dc 55 1b be d5 0b 34 be da 96 52 be
       -0.09850307 -0.15169472 -0.17582639 -0.20565358
0002f0 a1 a5 13 be c0 8c ee 3a fb cd f7 bd 20 e1 d2 b9
       -0.14418651 0.0018199906 -0.120998345 -0.00040222052
000300 1f 68 83 3c 8e c7 78 3d 04 1b a2 3d 4a 58 71 bd
       0.01604086 0.060737185 0.07915309 -0.05892209
000310 cb e4 08 3c da 0e b7 3d 61 84 28 3e c1 1c 16 3e
       0.00835533 0.089383796 0.16456749 0.14659406
000320 24 29 42 bd e1 83 45 bc 90 49 15 bd b5 03 bd 3c
       -0.047402516 -0.012055368 -0.036447108 0.023073057
000330 91 35 85 bd 31 09 c4 bd e7 8a c1 bd b2 2d 6b bd
       -0.065043576 -0.095720656 -0.09450322 -0.057416625
000340 b6 cb bd bd fb 42 ee bb 5f 67 6b bd 92 bd 17 be
       -0.092673704 -0.0072711683 -0.05747163 -0.14818409
000350 b6 49 5e bd ad 1c 2e bd 69 8b d7 bd d8 c1 1a be
       -0.054269515 -0.042507816 -0.10524637 -0.15113008
000360 65 55 07 be b5 fd 77 bd ee 4a fb bd 4e 5f 08 be
       -0.13216169 -0.06054469 -0.12270151 -0.13317606
000370 97 d3 2f be 43 ca c0 bd 64 fd 7b bd 40 de d7 bd
       -0.17170559 -0.09413578 -0.06152095 -0.10540438
000380 37 ad d3 bc 20 5a 29 bd 3e e5 95 3c fa ee f7 bd
       -0.025839431 -0.041345716 0.018297788 -0.12106128
000390 d5 72 c1 bd 4b ea ac bd 95 c5 e4 3c e3 62 24 3d
       -0.094457306 -0.08443125 0.027926246 0.04013337
0003a0 e5 20 c0 bd 11 02 48 bd a5 1a 2a bd 40 06 93 bd
       -0.09381274 -0.048830096 -0.041529316 -0.071789265
0003b0 0c 13 e2 bd 58 08 e2 bd cd 0f ef bd 16 37 75 bd
       -0.11038789 -0.11036748 -0.11672936 -0.059866987
0003c0 80 b3 b7 bd fb f6 8a bd 39 50 9d bc cf 58 49 bc
       -0.08969784 -0.06785389 -0.019203292 -0.01228924
0003d0 a4 e8 c2 bd e1 c2 16 3d 98 f5 89 3d 09 64 c8 3c
       -0.09517029 0.036806945 0.067362964 0.024461763
0003e0 1f 93 56 bd 95 47 a6 3d e3 3b d8 bd 33 3d d6 bd
       -0.0523864 0.08119122 -0.105582975 -0.104608916
0003f0 60 4c 78 be bd 98 c2 bd 5a f5 0c be e7 90 cf bd
       -0.24247885 -0.09501789 -0.13765469 -0.1013506

conv2.bias f4 [16]
000000 0c 6d 49 3e a1 03 5a 3f f6 05 60 3d aa 61 05 bf
       0.19670504 0.8516179 0.054693185 -0.5210215
000010 28 23 1a 3f dd fd 68 be 11 6b 9a be 80 13 ba be
       0.60209894 -0.22753091 -0.3015981 -0.36343002
000020 5a 03 dd 3e 66 42 e4 3c 9e 04 05 3f 71 e3 86 be
       0.4316662 0.027863692 0.5196017 -0.263454
000030 de 10 05 3f fe 57 a7 be 07 35 30 be f7 fc ac 3d
       0.5197886 -0.3268432 -0.17207728 0.08446687

fc1.weight f4 [120, 400]
000000 75 df 9d 3c bf 14 c9 bc c6 14 eb bc f9 71 27 3d
       0.019271592 -0.024546025 -0.028696429 0.040880177
000010 94 54 05 3d b8 2c 53 bc 3e cf 54 3d c1 bc 35 3d
       0.032551363 -0.01288908 0.051955454 0.044369463
000020 ef 48 c2 3b c3 d6 21 3d ab fe ef 3b d7 98 6d bd
       0.0059291045 0.039511453 0.00732406 -0.058007088
000030 01 d9 ad bb 94 48 ef 3b 55 4e 18 bd 7c 53 12 bd
       -0.00530541 0.007302353 -0.03718408 -0.03572415
000040 bb b9 62 bd 28 7c 46 bd 4f 16 37 3c 35 45 8b 3b
       -0.055352908 -0.04845825 0.011174752 0.0042501935
000050 4d b4 b5 38 dd 75 4d 3c 2c 76 73 bc 66 80 86 bc
       8.664336e-05 0.012540308 -0.014859717 -0.016418647
000060 a2 77 64 bd cf 08 a8 3d 68 76 35 3d 80 a1 46 bb
       -0.055778153 0.08204805 0.044302374 -0.0030308664
000070 4d e7 9e 3d be ce a7 3d a9 d7 a3 3c eb ac 8a 3d
       0.07758961 0.0819373 0.020000296 0.06771263
000080 0c 73 b8 3c e2 56 97 3c 8f 70 bd 3d c4 7e e4 bc
       0.022515796 0.018474046 0.092499845 -0.027892478
000090 03 b6 9b 3c d5 66 14 3d 1b 00 73 bc 43 12 25 3b
       0.019007688 0.03623088 -0.014831568 0.0025187887
0000a0 c4 1c c0 3c f8 f3 bc 3c 40 40 bc 3b c5 98 ec 3c
       0.023451217 0.023065552 0.005744964 0.02888144
0000b0 55 17 29 3d 2e b7 5c bc 41 eb 45 bc 8c fe 60 bd
       0.041282017 -0.013471408 -0.012080015 -0.054930255
0000c0 0d f7 18 bd be 41 f0 bc 07 d9 1c bc 3f 93 83 bd
       -0.03734498 -0.029328223 -0.009573228 -0.06424569
0000d0 11 f9 c2 bd 0f 27 0f bd 01 ac 50 3d 4c 66 35 3d
       -0.09520162 -0.03494936 0.050945286 0.04428701
0000e0 ab 4a ac bc 14 c9 2e bc 74 05 2e bd 84 49 b6 bc
       -0.021031698 -0.010668058 -0.04248567 -0.022251852
0000f0 e7 57 b7 3c f6 f5 16 bd 9e b1 cb bb ee 77 0d ba
       0.022380782 -0.03685566 -0.006216242 -0.0005396594
000100 de 65 86 3b c0 7a 98 3d c9 47 9c bb c0 60 ba 3c
       0.004101499 0.07445288 -0.0047692996 0.022751212
000110 9a 5e 79 bc 49 6c 31 3d 27 8b ee 3c 29 79 b7 3c
       -0.015220309 0.04331616 0.029119087 0.02239664
000120 6b 47 72 bc 76 f1 e9 bc 5d 39 66 3d e5 27 f4 3c
       -0.014787535 -0.02855752 0.05620705 0.02980418
000130 4a c5 eb 3c 9a 93 29 bc 21 1b 8a bd 3b 0e 50 bb
       0.028780598 -0.010350132 -0.06743456 -0.0031746763
000140 00 b3 7a bd 0e 47 4f bb c7 20 9c 3c 2a 1c 20 bd
       -0.061205864 -0.0031628045 0.019058598 -0.03908936
000150 83 fd 02 3d 6a f4 63 bb f2 82 ef ba f5 a6 5f b9
       0.03198005 -0.0034783133 -0.0018273278 -0.00021329134
000160 5f b7 2b bc c0 43 d1 3c 6d fc 37 3d 64 a0 bc 3c
       -0.010480731 0.025545001 0.044918466 0.023025699
000170 06 9f 48 3d 94 0d ed 3c 41 df a3 3b 4d 1c 4c 3c
       0.04897978 0.028937139 0.005000979 0.012457919
000180 62 16 12 bd f4 43 e4 3b 60 ed 71 bd 74 70 cb bb
       -0.035665877 0.0069661085 -0.05906427 -0.006208474
000190 09 5c 68 3c dc a7 11 3d ac c1 21 3b 5a 24 a0 3c
       0.014182099 0.035560474 0.0024682088 0.019548584
0001a0 ee 39 a4 3c 73 11 ed 3c c2 b3 8c 3c bb 4e 8b bd
       0.020047154 0.028938984 0.017175559 -0.06802126
0001b0 b5 9a 55 bd 6f e3 4b bd 01 b0 0d bd c5 e0 f4 3c
       -0.052149493 -0.049777444 -0.03459168 0.029892335
0001c0 4e 96 45 3c 31 7c e2 bc c2 6a 8c 3c c4 ae 9d bb
       0.012059761 -0.02764711 0.01714075 -0.0048120935
0001d0 a6 2e a2 bc e4 22 3f bd b7 53 b1 3c 41 4d 0a bd
       -0.019797634 -0.046664134 0.021646364 -0.03376508
0001e0 70 9b 19 bc fe bd af bc ff 91 08 bd a9 38 41 3d
       -0.009375438 -0.0214529 -0.033342358 0.047173176
0001f0 03 63 84 3d 39 11 3f 3c 64 8a 68 bd 70 cf 15 3c
       0.064641975 0.011661821 -0.056772605 0.009143695
000200 8e b3 96 3c 9b c9 b4 bc b4 db c8 3b e2 00 e9 bc
       0.018396165 -0.02206879 0.0061297063 -0.028442804
000210 51 43 9b bc 53 a3 39 3c 12 b4 51 bc 9e 31 42 bd
       -0.018952997 0.011330443 -0.01279928 -0.0474106
000220 15 c7 49 bd 0f 1c f5 3b 01 7c 22 3b 54 dd 33 3c
       -0.049262125 0.0074801515 0.002479315 0.010978062
000230 4f c1 11 3d 54 3b 6b bd 9f 14 fd bc 2b b2 68 bd
       0.035584744 -0.057429627 -0.030893622 -0.05681054
000240 28 14 16 3d 2e 3f 84 bc 26 d7 6e 3d 54 3d 81 3b
       0.036640316 -0.016143408 0.05831065 0.0039440785
000250 85 29 9d 3d 5d 55 ab 3c ab ee cb 3b 09 b9 94 bc
       0.07673935 0.020914728 0.00622352 -0.018154638
000260 9a 30 31 3d b7 fb f1 3c f1 09 bb bd f1 32 75 3d
       0.04325924 0.029538972 -0.091327555 0.059863035
000270 df 61 49 3c 25 48 c1 3d 73 98 27 3d ef d4 4c bc
       0.012291401 0.094375886 0.04091687 -0.012501939
000280 79 2b c0 ba 5e f3 8b 3d 4e 8e c1 3d 26 e9 ae 3d
       -0.0014661393 0.06833528 0.094509706 0.08540563
000290 6a 21 b5 3c 67 2a 15 3c 97 d1 15 3b 90 f3 59 3d
       0.02211066 0.009104348 0.002286052 0.053210795
0002a0 d2 01 90 3c 42 65 20 3d a6 cc 0f 3d 90 14 78 bd
       0.017578993 0.039159067 0.035107277 -0.060566485
0002b0 ba 5e 41 bd 4c 46 30 bc da 76 0a bd 45 9e 7a bd
       -0.04720948 -0.010758948 -0.033804752 -0.061186094
0002c0 35 c6 c1 bc 8e 50 1a 3d c1 d4 82 bb 9d 9d 08 bd
       -0.023654083 0.03767448 -0.0039926474 -0.033353437
0002d0 48 be cd bc 22 de fb bb f9 c1 60 3d e7 f6 6b bc
       -0.025115147 -0.0076863924 0.054872487 -0.014402128
0002e0 cb e4 98 bc 41 5f 81 3c c6 93 bb 3b 35 32 ce bc
       -0.018663784 0.01579249 0.005724403 -0.025170425
0002f0 43 d8 6f 3b 9c 04 7a bc 70 65 ca ba 14 ca 93 bc
       0.0036597408 -0.015259888 -0.0015441608 -0.018040694
000300 e9 60 3b 3d 20 be e9 bc 03 01 0a 3d 6e 85 ca bc
       0.045746718 -0.028533041 0.03369237 -0.024721827
000310 23 49 94 bd cf f8 38 3c 48 30 ed bb dc 47 77 bd
       -0.07240512 0.011289789 -0.0072384216 -0.060371265
000320 7b 00 3c bb e9 b7 5e 3d cf 2b 13 3d d1 fe 95 3d
       -0.002868681 0.05437461 0.03593045 0.07323993
000330 af da 59 bc 50 18 2b 3c 7f 7c 00 ba 6c ed 4f bd
       -0.013296767 0.010442808 -0.0004901364 -0.050763533
000340 19 a8 5e 3c 7a df 9b bc 87 6d 45 bc 1e 8c eb 3c
       0.013589882 -0.01902746 -0.012050039 0.028753337
000350 a1 cd 8e bc 29 54 39 3d 96 43 71 bd 21 0c 8f 3d
       -0.017432036 0.045246277 -0.058902346 0.06984735
000360 44 3f 89 bc 47 b5 ab 3c 5c c6 25 3b 96 d9 4d 3d
       -0.0167538 0.020960463 0.0025295233 0.050256334
000370 0d 94 38 3d c0 94 2b bd 34 3d 18 3d a3 d6 b8 bc
       0.045063067 -0.041889906 0.037167743 -0.022563284
000380 3e 37 06 bd c5 b9 6d bd c7 c3 8b 3c 5e f9 b0 3c
       -0.032767527 -0.05803849 0.017061127 0.021603283
000390 47 b3 b6 3b 0d 6f e6 3c a9 11 89 bd ef 1c e0 3c
       0.0055755707 0.028129125 -0.066928215 0.027357547
0003a0 d6 68 f6 3c 95 67 61 3c 5f eb 01 bd 33 d6 45 bc
       0.030079287 0.013757606 -0.031718608 -0.012074995
0003b0 3f 11 79 bc 31 ca bd bc 73 a2 5e bd b6 e9 c2 3c
       -0.015201866 -0.023167701 -0.054354142 0.023793083
0003c0 1c d0 26 3d 44 bd 91 3c 11 80 ca 3c 28 2f a0 bc
       0.040725812 0.017790444 0.02471927 -0.019553736
0003d0 69 76 3a bd 92 f1 fe 3c 00 65 1a bd d5 f5 2a bc
       -0.04552308 0.03112105 -0.037693977 -0.0104345875
0003e0 87 da 1d bd 8f 60 c7 3c ed f2 8c bc 44 9e 3a bd
       -0.038538482 0.024338035 -0.01720568 -0.04556109
0003f0 4e f5 80 bd b1 b0 4a bc 2c ac 98 bd 62 08 90 bd
       -0.06296788 -0.012371228 -0.07454714 -0.07032849

fc1.bias f4 [120]
000000 90 8d 8a bc 24 b2 6e bd 41 ac 0f 3e 2b ec 01 3c
       -0.016913205 -0.058275357 0.14030553 0.007929842
000010 cb 4c e7 3b b6 92 05 3e db 85 fb 3d ed 99 50 3d
       0.007058715 0.13044247 0.1228139 0.050928045
000020 da a9 0f bc 03 c5 b9 bc 71 25 ce 3d 43 b8 49 bd
       -0.008768523 -0.02267695 0.10065735 -0.04924799
000030 4a b2 0f 3e 4d 68 23 3e 4c 62 8a 3c 41 a3 53 be
       0.14032856 0.15957756 0.016892575 -0.20667745
000040 b0 34 0a be c7 f8 ce 3c 83 3b 3a bb 53 82 f8 bc
       -0.13496661 0.02526511 -0.002841682 -0.03033558
000050 7f 14 dc 3d db 8a 0a be 5c 15 c2 3d 34 8d b6 bd
       0.10746097 -0.13529532 0.0947673 -0.08913651
000060 40 11 38 3e 68 dd e6 3d b2 8b 1e 3e d8 69 c2 3d
       0.1797533 0.11272699 0.15482977 0.09492844
000070 8d fb 11 3e c1 3e a2 bd ce a3 bb bd da c5 6c bd
       0.14256115 -0.079221256 -0.09162103 -0.057805873
000080 63 38 20 bd 42 3a 15 3d 3a f1 82 3d 99 09 2f 3d
       -0.039116275 0.036432512 0.063936666 0.042733762
000090 3f ea e4 bd d3 56 2d bd 79 f5 de 3d 0e ef f5 3d
       -0.111774914 -0.04231913 0.10886664 0.12008487
0000a0 18 2a 38 bd 77 46 8e 3d 5e 1c 13 bd c8 59 f0 bd
       -0.04496202 0.06947034 -0.035915725 -0.117358744
0000b0 e7 14 0b 3d 94 b1 91 bc 42 97 99 3c 0c 3c 67 3b
       0.03395548 -0.017784871 0.018748883 0.0035283593
0000c0 c2 1b 29 3d ea ae 44 3d f2 ee 3a bd a8 b5 26 be
       0.041286238 0.048018374 -0.045638032 -0.16280234
0000d0 b3 be 01 3e ea 1e 73 3d 29 db 3b 3d d1 6b cb bc
       0.12670402 0.059355654 0.045863304 -0.024831684
0000e0 d0 65 06 be ae 2e 46 bd 53 96 89 3e 4d 95 6f be
       -0.13124776 -0.04838436 0.268725 -0.23396797
0000f0 86 52 08 3b 29 c0 85 bd 1e 95 7e bb 89 49 2f 3c
       0.002080114 -0.06530792 -0.0038846205 0.0106986845
000100 7e 0f 43 bd 87 b4 01 bd 96 ab 08 bd fd 0d 55 bb
       -0.047622196 -0.031666305 -0.033366762 -0.0032509558
000110 46 c6 b8 3d 88 2d 2b 3d 7a ba 0b 3e 98 52 a4 3c
       0.09022193 0.04179147 0.13645354 0.020058915
000120 06 a4 5a bc 5b d0 d1 bc 6b 2b 21 bd 9d ed c6 3c
       -0.01334477 -0.025612047 -0.039348047 0.024283225
000130 9c 03 4e 3d ce 27 1d 3e 6b 70 1f 3e 66 4d ee bd
       0.05029641 0.15347216 0.15570228 -0.11635856
000140 de 00 25 3d 3d 63 e9 3c f8 8d 85 3d 7f fb 69 bd
       0.04028403 0.028489703 0.06521219 -0.05712461
000150 16 70 16 3c fb b4 19 3e c2 ea 94 3d 22 ba 3b 3e
       0.009181997 0.15010445 0.07271339 0.18332723
000160 85 32 cf bd d0 6f b5 bc 5b cd b5 bd d8 5a 9a 3b
       -0.10117058 -0.022148043 -0.08877059 0.0047105365
000170 f3 15 29 bb 27 94 09 3e 6b 3c 42 bc eb b6 0a 3d
       -0.0025800436 0.13435422 -0.011855225 0.03386585
000180 da 4f 1c 3d f6 44 30 bd 96 55 de 3d 73 e9 17 3d
       0.03816209 -0.043034516 0.10856168 0.03708787
000190 fb 8b 23 bc 14 16 f5 3c 70 e3 51 bd ae f0 08 3e
       -0.009982104 0.029917754 -0.051242292 0.13373062
0001a0 95 ec 2b 3e 96 9f ea 3d 59 70 9e 3d be 45 4f 3d
       0.16789468 0.1145622 0.07736272 0.05060362
0001b0 35 d9 75 3d e2 d9 1c 3d d4 66 80 bc 9a 1c 73 3c
       0.060021598 0.038293727 -0.015674032 0.014838362
0001c0 e8 b8 68 bc 69 11 27 3b 87 ee ab 3c 3d 27 36 3c
       -0.014204241 0.0025492555 0.020987762 0.011117754
0001d0 0f 32 02 bd e7 36 9b 3c d7 94 24 be 1f 12 52 3a
       -0.03178602 0.018947078 -0.16072403 0.00080135645

fc2.weight f4 [84, 120]
000000 59 bd 7d bd e2 e6 5a bd 80 75 8e 3d 09 96 f6 3c
       -0.061948154 -0.053442843 0.06956005 0.03010084
000010 02 3c 5d bd 6d 80 1c 3d d5 dc 42 3d da ca 3f bd
       -0.054012306 0.038208414 0.047573883 -0.046824314
000020 bf 4d 41 bd 2a e1 66 bc d5 c6 12 3d 4f e3 57 3c
       -0.047193285 -0.014091769 0.035834152 0.013176753
000030 bd 76 29 3d de 84 50 3d f1 e4 92 3d e7 a9 6c 3d
       0.041373003 0.050907962 0.07172573 0.05777922
000040 4b a9 2d bd 60 31 9e 3d 32 8b 36 bd 18 57 40 bd
       -0.04239778 0.07724261 -0.04456634 -0.04695806
000050 18 15 05 bc c7 8f 61 bb 42 71 85 3d 08 b1 6a bd
       -0.008122705 -0.0034417973 0.06515743 -0.057297736
000060 5e 25 ed 3d db 5a df bd 00 c0 f3 bd 9d 20 ac 3d
       0.11579393 -0.10906001 -0.119018555 0.08404658
000070 7b d5 e4 bc 49 d5 08 bd cd 62 80 bd be 83 c5 bd
       -0.027933827 -0.03340653 -0.06268845 -0.096442685
000080 00 bf 77 3d 40 42 4e 3d f1 e1 aa bd 91 27 8f bd
       0.060484886 0.05035615 -0.08343876 -0.069899686
000090 c7 d5 1b 3d 7b d0 01 3d 17 53 20 bd b2 63 81 3c
       0.03804567 0.031692963 -0.03914174 0.015794609
0000a0 0c 95 9f bd b8 9a a1 3c fb d3 c7 bd 9f 12 b0 bc
       -0.077921 0.019727096 -0.09757229 -0.021493254
0000b0 08 3c 12 3e 55 f7 a9 bd 35 69 4f 3c e8 4a d0 3b
       0.14280713 -0.08299128 0.012659361 0.006356586
0000c0 a7 56 90 3b e4 de ee bd f9 9b aa bc 22 79 e6 bd
       0.004404861 -0.11663607 -0.020826327 -0.11253573
0000d0 75 8f a8 3d 36 a7 5e 3d 38 36 66 3d 51 ae a0 3d
       0.08230487 0.054358684 0.05620405 0.07845748
0000e0 b5 cc 6a 3d f8 a3 24 bd c6 a2 06 3d 53 ea 01 3d
       0.05732413 -0.040195435 0.032870077 0.03171761
0000f0 34 b0 52 3d 7e a6 f7 3c db 11 36 bd e4 4d 94 bd
       0.05143757 0.030230757 -0.044450622 -0.07241419
000100 5e eb b2 bd 68 9f 81 3d 90 92 84 bc 54 e2 1f 3d
       -0.08736299 0.063292325 -0.016183168 0.039034203
000110 71 2f e1 3c 21 5a 9a 3d 59 ab 9d bd 26 b0 c4 3c
       0.027488442 0.07536722 -0.076986976 0.024009775
000120 78 7d db 3d c0 aa 5d 3d 31 28 5b 3d eb 86 4a bd
       0.10717291 0.054117918 0.053505126 -0.049445074
000130 23 2a 50 3c e9 60 84 3b 64 bb b3 bc 6e d8 ab bd
       0.012705359 0.004039873 -0.02193994 -0.0839089
000140 12 96 00 3e 2a 4b fa bb de dc d7 bd a3 6f 8c bb
       0.12557247 -0.007638355 -0.10540174 -0.004285769
000150 a4 49 89 bd 92 d2 a2 3d 69 25 ca 3d f8 7a 0a 3e
       -0.06703499 0.07950319 0.09870417 0.13523471
000160 81 6d 8f bd 6f a8 37 3d b7 d3 e1 bd fd 89 81 bd
       -0.07003308 0.044838365 -0.110267095 -0.06325147
000170 ef 24 94 bb ce 40 71 bd b0 42 14 bd c7 80 8d bd
       -0.0045210044 -0.058899693 -0.03619641 -0.06909328
000180 33 5c c6 3b 8d c0 da 3c 52 51 97 3d da 75 19 3e
       0.0060534715 0.026703143 0.073885575 0.14986363
000190 fe b5 b2 bd 5c 80 48 bd 3a 54 15 bd e2 09 c7 3c
       -0.087261185 -0.048950538 -0.036457278 0.024296705
0001a0 50 ae 86 bc ff 31 94 3d 6b 79 92 3d c0 26 a9 3d
       -0.01644054 0.072360985 0.07152065 0.08259344
0001b0 b2 22 0f 3e fb 98 f6 bc 82 f1 b8 bd a5 1c 0b 3e
       0.13978079 -0.030102244 -0.09030439 0.13585146
0001c0 e1 4a c4 bb 35 13 47 bd d4 d5 22 3d e1 3c 9c 3d
       -0.0059903716 -0.0486023 0.039754704 0.07628799
0001d0 45 db 54 bc 76 fa 48 bd 4b 2d 51 bd 57 3f 8e bb
       -0.012991731 -0.049066983 -0.051068585 -0.004341047
0001e0 70 1e 6d bd f8 e2 8e 3d cb 4a b0 3d f4 ce 83 bd
       -0.057890356 0.069768846 0.086080156 -0.064359576
0001f0 6b b7 aa bd 65 23 de ba 0c 3b d5 3c 0d fd a0 bd
       -0.083357655 -0.0016947804 0.026029132 -0.078607656
000200 fa 8e d5 bd b2 0b 96 3d 21 9f 7e 3d 2d b5 15 bd
       -0.10427661 0.073264495 0.062163476 -0.036549736
000210 1b 91 c0 3c c9 d6 bd 3c fc 32 85 3d 0f cc af 3c
       0.023506692 0.023173707 0.06503865 0.021459607
000220 d6 06 50 bd ff a9 3f 3d 57 30 8f bd ee af eb bc
       -0.05078777 0.04679298 -0.06991642 -0.028770413
000230 2b 3f 39 bd cf 24 e7 bd 62 5b a5 3d a3 b1 5b bd
       -0.045226257 -0.112863176 0.080740705 -0.053636204
000240 ba d6 2e bd fe ac e8 3b 4a fa 8f 3d cc 1f 0f bc
       -0.042685248 0.0071007004 0.07030161 -0.008735608
000250 36 15 a3 3b 0f a0 86 3d cb d5 d0 3c b8 d3 58 3a
       0.004976894 0.065734975 0.02549257 0.00082712946
000260 ac 11 a9 3d fe 76 80 bd b2 95 31 3d 1b be 99 3d
       0.08255324 -0.06272696 0.04335565 0.07506963
000270 e2 aa 81 3c 0d 89 8c 3d d0 75 a1 3d 16 1c 3f 3d
       0.015828554 0.06862078 0.07883799 0.046657644
000280 7c c5 bc 3c 40 b8 25 bd 09 32 3e 3d ed 0c 3e bd
       0.023043387 -0.040458918 0.046434436 -0.046399046
000290 fb da 7d bd ea 13 a6 3d 9a 76 b3 bd 8e e4 a0 bd
       -0.061976414 0.08109267 -0.08762856 -0.07856093
0002a0 b1 e0 83 3d 04 8d 8b bd 33 42 3c bd c2 6c 17 bd
       0.06439341 -0.06814006 -0.04596157 -0.036968954
0002b0 40 e1 c8 bd d2 57 52 bd e0 7d a4 bc 35 54 e3 3c
       -0.09808588 -0.051353283 -0.020079553 0.027750114
0002c0 5d d3 93 bd 09 74 c3 3d 99 bb 1a bd 33 22 dc bc
       -0.07218049 0.09543616 -0.037776563 -0.026871776
0002d0 ed 8b 23 3d 8c 20 8f bd 59 66 ca 3d a6 e3 81 3d
       0.039928365 -0.0698863 0.098828025 0.063422486
0002e0 f5 4e 36 3d 26 8e 09 bd 3b ef 7c bd 06 0d 97 bd
       0.044508893 -0.03358283 -0.061751585 -0.07375531
0002f0 86 9e 95 bd 39 90 63 3d 8b 59 54 bd ca 1f e7 bb
       -0.073056266 0.055557463 -0.051843207 -0.00705335
000300 14 a0 28 bd c7 4a 7a bd 59 36 31 bd 4a de 02 3d
       -0.041168287 -0.06110647 -0.04326472 0.031950273
000310 c0 92 e0 bc 3b ce 20 3d c4 72 86 3d 44 31 b2 bd
       -0.027413726 0.039259177 0.065648586 -0.08700803
000320 4b b2 ba 3b 20 30 87 bd a5 70 a4 3d e0 a5 4b 3d
       0.0056975237 -0.06600976 0.08029298 0.049718738
000330 3a ea 9b 3d cf 13 60 bd 18 30 b2 bd 82 f5 b9 3c
       0.076130345 -0.05470639 -0.087005794 0.022700075
000340 af bf 33 bc 76 d4 4a bd 1b 07 93 3c 74 9b be 3d
       -0.010970994 -0.049519025 0.017947724 0.09306994
000350 4d 00 3c 3d e6 6f 84 bb c8 87 d5 bc ce 52 4a bd
       0.045898724 -0.0040416596 -0.026065722 -0.049395375
000360 93 96 a3 3d 59 77 bb bd 64 c5 95 3d a3 e6 36 bd
       0.07987704 -0.09153623 0.0731304 -0.044653546
000370 7a 39 32 3d 87 2b 26 bd 89 24 48 3d 92 1f ca 3d
       0.043511845 -0.040568855 0.048862968 0.09869303
000380 5c 0e 61 3b bd 46 da bc f4 b3 2e 3d 36 8a 39 ba
       0.0034340834 -0.026645059 0.042652085 -0.0007077785
000390 ed 42 3a 3d 31 d6 0b 3d f1 5f e7 3c 6e 32 70 bc
       0.04547398 0.034139816 0.02824399 -0.014660461
0003a0 51 ad 74 3c a7 1f 8a bd a7 28 b8 bd 83 e5 9a 3d
       0.0149339 -0.067443185 -0.08992129 0.07563307
0003b0 d3 f3 91 bc b0 d2 b9 3d 59 83 8a bd 6c fe 36 bc
       -0.01781646 0.090733886 -0.06763334 -0.011169057
0003c0 94 60 3e bc 34 85 9e bd c9 fc de 3d d4 8c 06 3a
       -0.011619706 -0.0774025 0.10888059 0.00051326794
0003d0 7f b1 91 bd 2c e3 cd 3c a7 ad c3 bd 29 47 65 bd
       -0.07113933 0.025132738 -0.09554606 -0.055976067
0003e0 70 c9 b9 bd ae 22 b3 bd 79 30 04 bd 8e b8 51 bd
       -0.09071624 -0.08746849 -0.03227279 -0.051201396
0003f0 45 ef 16 3c 21 10 60 bd a5 65 3c bd 96 5f fc bc
       0.00921232 -0.05470288 -0.045995373 -0.030807298

fc2.bias f4 [84]
000000 d5 c4 46 3e 0d ea 47 bd ef fa 50 be 94 dd 89 bd
       0.19411023 -0.048807193 -0.20408224 -0.06731716
000010 de 01 a3 3d 3e c4 29 3e 64 99 45 bd 15 fd 30 3e
       0.079593405 0.16578767 -0.048241988 0.17284043
000020 e1 33 db 3d cb ae c5 bd ae 55 b7 3b 57 32 68 bd
       0.107032545 -0.0965248 0.0055949306 -0.056688633
000030 f7 e5 5b 3e 17 f8 8c be 38 39 9f bc cf 6d 7a 3d
       0.21474443 -0.27533028 -0.019436464 0.061139878
000040 1c 43 63 bd 20 6f f0 3c 83 6a 31 3d 71 c1 1d bd
       -0.055483922 0.029349864 0.043314468 -0.03851456
000050 ea df 6b 3d 23 7c 31 3d 2a fb 53 3c c9 ff 9e bc
       0.057586588 0.043331277 0.0129383 -0.019409077
000060 76 78 cf bc 25 db 0c be 48 4c 0c 3e fa be fb 3d
       -0.025325995 -0.13755472 0.13700974 0.12292285
000070 da 0e c2 3d 67 e0 80 bc 6f f5 68 3e a0 c2 7f 3d
       0.09475489 -0.015732003 0.22749875 0.06244147
000080 2b a3 0a 3c 99 38 05 bd b9 a0 10 bd 54 50 ef bd
       0.008461754 -0.03252468 -0.035309527 -0.11685243
000090 20 96 0c 3f d9 10 ee 3b a8 9f 93 bc 41 c5 4f 3e
       0.5491657 0.007265192 -0.018020466 0.2029009
0000a0 34 5c a4 3e d2 71 78 3d 98 e3 8e 3e 96 c0 18 3e
       0.32101595 0.060655423 0.27908015 0.14917216
0000b0 d3 89 fd 3b 58 f8 91 bd 60 38 aa 3d 07 c5 e0 3c
       0.007737377 -0.07127446 0.08311534 0.0274377
0000c0 b5 12 dd bc bc 27 85 3c 93 1f c7 bd b6 4c 63 bc
       -0.02698646 0.016254298 -0.09722819 -0.01387327
0000d0 02 0f d1 3d fa a2 aa bb cb 01 86 3e 31 c8 b0 bc
       0.10207941 -0.0052074166 0.26173243 -0.021579834
0000e0 b8 fc 76 bc 49 35 3e be f8 5d 6a 3e 40 38 90 3a
       -0.015074901 -0.18575014 0.22887409 0.0011003092
0000f0 05 c9 02 3f 3a de 55 3c dd 17 48 3b e9 79 b8 bd
       0.5108798 0.013053471 0.0030531802 -0.090076275
000100 eb 00 21 3e 46 c6 b2 3d 81 a4 0f 3e 54 65 70 bd
       0.15723006 0.08729224 0.14027597 -0.058690384
000110 55 2b 4a 3e 42 93 be 3e da 1d 84 3e a4 8a 6d 3c
       0.19743092 0.37221724 0.25804025 0.0144983865
000120 cd f9 17 bd b7 c0 46 bd 0d 99 54 3d 12 2b 78 bd
       -0.037103463 -0.04852363 0.051903773 -0.06058795
000130 56 a3 b6 bd 43 61 bd 3d 52 a5 60 3c 6b ee 16 3e
       -0.089178726 0.09247067 0.01371129 0.14739387
000140 af fb 38 be bf 71 61 3d 98 2f 33 bd 6c 8f 9c 3d
       -0.1806476 0.055040117 -0.04374656 0.07644543

fc3.weight f4 [10, 84]
000000 30 ea 68 be c9 ce 4c bd f1 d9 8e 3d a0 b8 23 3e
       -0.22745585 -0.050001893 0.06975163 0.15988398
000010 84 a5 f0 3c 15 5e 81 3e 72 ff 85 bd 5e 77 0b 3e
       0.029375799 0.2526709 -0.06542863 0.13619754
000020 a8 22 b1 bd b7 d3 80 bd 60 6f 78 bd 88 de 8f 3e
       -0.08649188 -0.062903814 -0.06065309 0.28099465
000030 c7 e5 9b bd d1 ef 18 3a 52 44 aa bd 04 79 e4 bd
       -0.07612186 0.0005834075 -0.08313812 -0.111558944
000040 3f 6c 21 3e 3f 66 3f 3e 7e 04 06 be 43 2b b3 bd
       0.15763949 0.18691348 -0.13087651 -0.08748486
000050 ff e1 47 be c7 12 f3 bd 58 f2 bd bc cb e7 4f 3e
       -0.19519804 -0.11868816 -0.023186848 0.20303266
000060 59 0b b2 bc de fc c1 bb 24 7d ab 3d aa 3f a2 bc
       -0.021733927 -0.0059200367 0.08373478 -0.019805748
000070 1c 30 41 be 8b d2 d6 bd 85 36 43 3e 23 f6 69 be
       -0.18866009 -0.10489377 0.19063766 -0.228478
000080 62 ef ff 3d a8 5b 70 3d e9 f0 5e bd 51 1d b3 bd
       0.124968305 0.05868116 -0.05442897 -0.08745826
000090 e2 22 9b be 68 f2 73 bd 45 c4 05 bd ae 12 97 3e
       -0.3030005 -0.05955735 -0.03265788 0.2950644
0000a0 66 82 68 be 65 d5 1c bd ca 0d 52 3e 7b 2e 42 3e
       -0.22705993 -0.038289446 0.20513073 0.18963043
0000b0 29 10 cb 3d ac a2 61 bd b8 55 98 bd bb 58 e2 bd
       0.09915192 -0.055086777 -0.074382246 -0.1105208
0000c0 a1 03 94 3b 74 4d fa 3c 7c fc 02 3d e1 e4 9f 3d
       0.004517034 0.03055451 0.03197907 0.07807327
0000d0 a1 6b b6 3d 9d e8 01 3e 89 07 be bd 7a f9 4c 3c
       0.08907247 0.12686391 -0.09278781 0.012510652
0000e0 1c f7 7c bd 0a 17 04 3e 84 35 f8 3d 75 50 bf 3c
       -0.0617591 0.12899414 0.12119582 0.023353795
0000f0 c0 33 af be cc 34 d2 3b 2b e7 30 bd c2 c9 5a 3c
       -0.3421917 0.0064149853 -0.04318921 0.013353767
000100 d9 12 e6 3d 08 e6 91 bd c8 e2 50 3e d0 01 07 3c
       0.11234064 -0.07123953 0.2039901 0.008240178
000110 4f a1 bf 3c de 4f 88 3e b0 64 04 3e e2 19 33 3d
       0.023392348 0.26623434 0.12929034 0.043725856
000120 fe 86 76 bd a0 d0 e8 3c ed 90 1e be 8e 8a a9 bd
       -0.060187332 0.028419793 -0.15484972 -0.0827838
000130 d3 30 ec 3d 1e c7 58 bd 53 26 18 3e a6 1d 87 3e
       0.1153275 -0.052924268 0.1485837 0.26389807
000140 f2 2d 0b 3d eb d2 ca 3d c5 d1 b8 bd 85 81 d7 bd
       0.033979364 0.09903511 -0.09024385 -0.10522751
000150 10 a0 f2 bc 21 ff ce bd 61 bd d7 3d c3 25 57 bd
       -0.02961734 -0.10107256 0.10534168 -0.052526247
000160 92 60 a0 bb 1a 85 3b 3e 14 31 af 3d c7 f7 41 3d
       -0.0048943246 0.18312493 0.08554283 0.04735544
000170 f8 d4 2d be bc 9a 00 3d 0a 48 6f 3d f0 b3 d4 bd
       -0.16975772 0.031397566 0.05841831 -0.10385883
000180 5c 79 66 bd ee c2 e2 3e 78 d6 dd bd 40 d4 9d 3d
       -0.05626808 0.44289345 -0.10831922 0.07706499
000190 6b d3 e6 bd 9c bc 71 3d 76 c9 eb 3c 20 b5 21 3e
       -0.112707935 0.059017763 0.028782587 0.1579175
0001a0 ca 5c 1b 3d 49 2b 6a bd 6a 8a e6 3d 1f e3 94 3d
       0.037930287 -0.057170186 0.11256869 0.072698824
0001b0 1a fd e8 bc 8c 81 84 3e 9a 4d 50 3d 39 4c a1 bb
       -0.028441 0.25880086 0.050855257 -0.0049224165
0001c0 bf 9f b1 3d ee 20 85 3c 5c 2d 14 be cb 1e 5e be
       0.08673047 0.016251054 -0.14470428 -0.21691434
0001d0 15 bb be 3d c4 db f8 bd 87 4b 76 bd 4e 7b dd bd
       0.09313027 -0.12151292 -0.060130622 -0.10814534
0001e0 20 a2 1e be d1 fa 8f bc f4 30 de bd f9 51 74 3d
       -0.15491533 -0.017575653 -0.10849181 0.059648488
0001f0 8d f7 c8 be 10 6c 56 3e 6a 8d 35 bc 8f 5b 5c be
       -0.39251366 0.2093966 -0.011081079 -0.21519302
000200 7c a8 35 3c 5b 00 9d bc 6c d0 32 bd 67 37 84 3e
       0.011087533 -0.019165209 -0.043655798 0.2582352
000210 72 81 49 bc 2b 0d 1b 3d fc 8c ca bd c9 29 b2 bb
       -0.012298929 0.037854355 -0.09890172 -0.00543711
000220 20 2f 12 be 7e be 34 3e 25 8a d8 bd 68 7c 92 bd
       -0.1427579 0.17650792 -0.10573224 -0.07152635
000230 4d 0d d9 3d 02 3c 90 3e 28 46 19 be bb 7c c3 3c
       0.1059824 0.28170782 -0.14968169 0.023863187
000240 83 87 8d be 12 88 a9 3d fb 36 07 3d 13 f2 d9 3d
       -0.2764245 0.082779065 0.033011418 0.10641875
000250 4b f1 49 be d6 ec 0e bd cd e1 9f 3b cf 0a a9 3d
       -0.19720952 -0.034893833 0.0048792125 0.08254015
000260 7e 69 97 bb 64 1c 3b be e6 3a 10 be ee 84 c2 bd
       -0.00462073 -0.18272549 -0.14084968 -0.094980106
000270 b8 e5 45 3c 17 2f c2 3d 1d d8 8c bd 19 6c 87 3d
       0.012078695 0.09481638 -0.06877158 0.06612415
000280 96 e0 1b 3e 28 f8 fd bc bf aa 9f 3d 27 40 ef 3d
       0.15222391 -0.03100212 0.07796239 0.11682158
000290 42 cb 70 3d bd f5 ef bd 07 a9 ed 3c 7c 06 b1 bd
       0.05878759 -0.11716793 0.029011263 -0.08643815
0002a0 32 1a cf 3c 15 f1 ab 3d a4 85 cf 3d 77 d6 3f 3d
       0.025281046 0.08395592 0.10132912 0.04683539
0002b0 4e 64 72 3d 7f 79 41 3c d9 e9 d6 3c 2d bd d9 bc
       0.05917769 0.011808752 0.026234554 -0.026579464
0002c0 aa c0 a0 3c b2 03 ef bc 56 b6 05 bd 5c 84 90 3d
       0.01962312 -0.029176567 -0.032644592 0.070564955
0002d0 fa 75 80 bd c6 0d 38 be ac f5 5d bd 6c f5 bc bd
       -0.06272502 -0.17974004 -0.05418937 -0.09226498
0002e0 2c 74 79 3d 2e ff 27 bd 5a 41 a5 3d 91 c5 13 be
       0.060901806 -0.041014843 0.080691054 -0.14430834
0002f0 66 2c 1f bd f7 a1 00 3d b2 3c 0b 3e d3 1a 20 be
       -0.0388607 0.03140446 0.13597372 -0.15635233
000300 08 45 c2 bd ef c7 15 bd 61 70 98 be 00 5c 2a 3e
       -0.09485823 -0.036567625 -0.29773238 0.16636658
000310 87 15 40 bd eb e2 bd 3d 1b f9 1f 3e b3 67 01 be
       -0.04689553 0.09271797 0.1562237 -0.12637214
000320 6e b3 28 be c3 c5 16 3e ee 1b c5 bd 86 1b de 3d
       -0.16474697 0.14723878 -0.09624468 0.108450934
000330 8a ca 6b 3e 8c 82 02 3e 97 7f a6 3c fc 60 09 3e
       0.23026481 0.12745112 0.020324511 0.13415903
000340 a5 15 87 3e 46 4b 81 3d a3 75 85 3e 3b 6d ae 3d
       0.263837 0.063131854 0.26066312 0.08516928
000350 6c 7f d9 bc 2b 95 41 3d 09 a0 2a 3e 8c ac 42 be
       -0.026550017 0.0472614 0.16662611 -0.19011134
000360 9e 0a d4 bc 7b a2 79 bd b3 0f f6 3c d9 41 30 3d
       -0.025883969 -0.06094597 0.030036783 0.043031547
000370 c1 84 5e be 61 d0 6d bd e3 ac 5b 3e 2f 5e 38 3d
       -0.21730329 -0.058060054 0.2145267 0.045011695
000380 75 53 87 bd c0 67 7f 3d 69 dd bf 3d 5a ab 73 3c
       -0.06607715 0.062354803 0.093684025 0.014872396
000390 5d 84 25 3d 26 c2 c8 3c dc 17 a0 bd 2f 07 95 bd
       0.040409435 0.02450664 -0.07817051 -0.07276761
0003a0 89 42 58 3d f6 f6 0d be 7a b8 e9 bc 0b c9 da bd
       0.052797828 -0.1386374 -0.028530348 -0.10682877
0003b0 be 04 cb bd 2a ba 1d 3e 25 d9 94 3e 37 26 f9 bb
       -0.09913014 0.15403047 0.29071918 -0.0076034325
0003c0 2f fb 73 3d c1 71 d4 bd 63 61 44 3e 38 b4 02 bd
       0.05956572 -0.10373259 0.19177775 -0.03191015
0003d0 10 4c 82 bd 6d d0 cd 3d 1a f7 22 be d7 30 0e 3e
       -0.06362164 0.1004952 -0.15914574 0.13885818
0003e0 42 7f a9 bc 6f 08 78 be af d2 b2 bd f2 03 e5 3c
       -0.020690564 -0.24221967 -0.08731591 0.027955983
0003f0 eb 19 ce 3d bd fd ba 3d 4e 6e 98 bd 40 95 a5 3c
       0.10063537 0.09130428 -0.07442914 0.02021277

fc3.bias f4 [10]
000000 0b 89 66 be 9e 97 23 bf 9a f0 68 3e ea b0 9c 3e
       -0.22513215 -0.63903224 0.22748032 0.30603725
000010 a8 b1 04 3f 5c 01 57 bd 60 f0 3e 3e 94 4a 8f be
       0.5183358 -0.05249153 0.18646383 -0.27986586
000020 2c c9 de 3d 71 63 8e be
       0.10878214 -0.27810243
